tmp/stamp_detector.pt (torch, 390438 bytes, 268 tensors)

weight f2 [8, 12, 3, 3]
000000 d8 24 ed b3 5c af e6 b4 c6 b8 dd b4 d9 b3 d8 b2
       0.01892 -0.2477 -0.115 -0.3062 -0.5967 -0.304 -0.2452 -0.2139
000010 b0 ad c4 2a 9e 31 8f a6 b7 35 b7 37 12 2f 9f 32
       -0.08887 0.05286 0.1755 -0.02562 0.3572 0.4822 0.1105 0.2069
000020 f4 37 6c 2b dd a8 03 23 f5 a8 69 2d 7d 31 7c aa
       0.497 0.05798 -0.038 0.013695 -0.03873 0.08453 0.1715 -0.05066
000030 82 2d 30 35 21 24 3b 9d 67 b4 92 ad 76 b4 0e b6
       0.08606 0.3242 0.01613 -0.005108 -0.2751 -0.08704 -0.2788 -0.3784
000040 1e b8 f2 2d 1b 2c 26 2f d8 2d 9e 34 47 ab 01 36
       -0.5146 0.0929 0.06415 0.1117 0.0913 0.2886 -0.05685 0.3752
000050 19 39 6e b2 c0 ab 33 24 14 b3 77 af 23 21 3c b1
       0.637 -0.2009 -0.06055 0.0164 -0.2212 -0.11664 0.01003 -0.1636
000060 77 30 bf 35 87 b5 7e a6 7f 1e 4c b0 5b b0 ac b4
       0.1395 0.3591 -0.3455 -0.02536 0.006344 -0.1343 -0.1361 -0.292
000070 f7 2f 4b b8 2e b7 58 a2 22 b3 de b2 c3 2e 1f 30
       0.12445 -0.5366 -0.4487 -0.01239 -0.2229 -0.2146 0.10565 0.1288
000080 0a 2f 36 af 45 37 6e 35 92 21 ec 36 ef 33 e9 ab
       0.11 -0.1127 0.4543 0.3394 0.01088 0.4326 0.2479 -0.0618
000090 26 a4 ef a0 5d a3 aa 30 3d 2d ae a9 a0 34 12 30
       -0.0162 -0.009636 -0.01438 0.1458 0.08185 -0.04437 0.289 0.1272
0000a0 65 9e 46 b1 dd b1 1c 34 32 b4 e8 b8 f4 9f a6 2e
       -0.006245 -0.1648 -0.1832 0.2568 -0.2622 -0.6133 -0.007767 0.1039
0000b0 91 29 85 34 89 33 89 2f 2b b0 40 39 df 2d 04 aa
       0.0435 0.2825 0.2355 0.11774 -0.1302 0.6562 0.09174 -0.047
0000c0 21 24 11 b0 33 b4 7a a5 a6 ad 2f b0 88 36 9a af
       0.01613 -0.1271 -0.2625 -0.0214 -0.08826 -0.1307 0.4082 -0.1188
0000d0 3f ad 32 25 58 ad d8 a8 f4 1d a0 a9 19 2d 5c af
       -0.082 0.0203 -0.0835 -0.03784 0.005814 -0.04395 0.07965 -0.115
0000e0 34 b8 95 b9 53 34 36 28 58 30 a4 1c f8 2d ea 2f
       -0.5254 -0.6978 0.2703 0.0329 0.1357 0.00453 0.09326 0.12366
0000f0 0f 32 99 38 87 38 3d ae fc 31 8e 2e ea 94 51 b1
       0.1893 0.5747 0.566 -0.0975 0.187 0.1024 -0.0012 -0.1661
000100 fd b1 0c b1 7b b0 4c b1 02 b3 66 b4 c1 b5 9e 32
       -0.1871 -0.1577 -0.14 -0.1655 -0.219 -0.275 -0.3596 0.2068
000110 63 ac 30 b0 2e a6 e5 b7 cf b6 8c 2e a9 a8 e7 2c
       -0.06854 -0.1309 -0.02414 -0.4934 -0.4255 0.1023 -0.0364 0.0766
000120 74 a8 da 33 10 34 e4 30 1a 36 46 38 fa aa 9e 2f
       -0.0348 0.2454 0.254 0.1528 0.3813 0.534 -0.0545 0.119
000130 cc 25 44 b3 e4 b4 db b5 b4 b1 9b b4 43 b0 01 15
       0.02264 -0.227 -0.3057 -0.366 -0.1782 -0.2878 -0.1332 0.001222
000140 2e ad 95 b1 67 2c 6d a8 be 31 d4 b3 cc b3 4c b6
       -0.08093 -0.1744 0.0688 -0.03458 0.1794 -0.2446 -0.2437 -0.3936
000150 c1 2e 39 2f dc 33 c4 19 db 34 79 25 bd 36 db 3b
       0.1055 0.11285 0.2456 0.002815 0.3035 0.02138 0.4211 0.982
000160 be 37 cf 2b a5 35 9b a5 d2 af 67 ae 85 b2 db b0
       0.484 0.061 0.3528 -0.0219 -0.1222 -0.10004 -0.2037 -0.1517
000170 1c 31 f3 ad 99 b4 3c b3 cc b5 df 30 28 2f 3b 30
       0.1597 -0.09296 -0.2874 -0.2261 -0.3623 0.1522 0.1118 0.1322
000180 e8 b2 19 ae 57 b4 a6 aa 62 26 bc 28 bb 2c 53 38
       -0.2158 -0.0953 -0.2712 -0.05194 0.02493 0.037 0.0739 0.5405
000190 ae 30 0a 33 3a 3b 87 35 af a0 32 30 0b a9 8e b4
       0.1462 0.22 0.9033 0.3455 -0.00915 0.1311 -0.0394 -0.2847
0001a0 13 b0 d8 b4 bf b4 5b 30 dd b1 e2 ad d7 af 9c af
       -0.1273 -0.3027 -0.2966 0.1361 -0.1832 -0.0919 -0.1225 -0.1189
0001b0 d1 34 96 a8 6f b0 36 b4 4a bc 67 b8 d9 32 6f b7
       0.301 -0.03583 -0.1385 -0.2632 -1.072 -0.5503 0.214 -0.4646
0001c0 82 b5 49 b5 bf a8 45 2a a7 2f 7a 38 12 3b 8d b1
       -0.3442 -0.3303 -0.03708 0.04898 0.11957 0.5596 0.884 -0.1735
0001d0 e1 31 bd 30 e6 24 46 2c 78 2a 2a 2d f2 34 eb 38
       0.1837 0.1481 0.01913 0.0668 0.05054 0.0807 0.309 0.6147
0001e0 d8 a5 c5 2f 95 27 81 aa 94 b9 fe b7 de b2 6e bb
       -0.02283 0.1214 0.02962 -0.0508 -0.6973 -0.4995 -0.2146 -0.9287
0001f0 8d b9 36 35 89 b1 a0 2d 03 a9 c8 35 e5 38 10 2c
       -0.694 0.3257 -0.173 0.0879 -0.03915 0.3613 0.612 0.0635

weight f2 [8]
000000 d1 3f d1 3f 87 41 2f 3e 7e 3f 05 45 7c 44 ce 40
       1.954 1.954 2.764 1.546 1.873 5.02 4.484 2.402

bias f2 [8]
000000 a5 3f c4 3c 1f 40 49 b4 22 42 60 ba 75 c0 87 c0
       1.911 1.191 2.06 -0.2678 3.066 -0.797 -2.229 -2.264

running_mean f2 [8]
000000 96 29 e0 29 29 ad 6b 26 b9 40 db 2d 32 42 95 c0
       0.04364 0.0459 -0.0806 0.02507 2.361 0.0915 3.098 -2.291

running_var f2 [8]
000000 9b 2d 65 2a c4 2d 89 2a 96 35 44 35 72 38 e1 34
       0.0876 0.04996 0.0901 0.05106 0.349 0.329 0.5557 0.305

weight f2 [8, 8, 3, 3]
000000 b7 af e2 ac 8e ae 8b af 44 b1 49 af b1 a8 f5 af
       -0.12054 -0.0763 -0.1024 -0.11786 -0.1646 -0.11383 -0.03665 -0.1243
000010 db af 5a 1e b6 ab 73 ab 1e ac 9c a9 3c ab 77 ad
       -0.12274 0.006203 -0.06024 -0.0582 -0.06433 -0.04382 -0.05652 -0.0854
000020 44 ab d2 12 f7 21 cb a0 71 a0 c6 2d 53 2e 22 a4
       -0.05676 0.0008326 0.01165 -0.00936 -0.008675 0.0902 0.0988 -0.01614
000030 e9 2d 9a 32 c2 2d f6 30 16 32 2b 30 fe 32 23 34
       0.09235 0.2063 0.08997 0.155 0.1902 0.1302 0.2185 0.2585
000040 9b 33 6d 31 23 32 50 30 f7 b0 fe b4 ef af 3e b5
       0.2377 0.1696 0.1918 0.1348 -0.1552 -0.312 -0.12396 -0.3276
000050 af b8 6d b5 80 b4 b0 b6 e2 b4 5d 2e 1e 31 ed 2e
       -0.5854 -0.339 -0.2812 -0.418 -0.3052 0.0994 0.1599 0.1082
000060 e3 2e 70 32 1b 30 08 2a 61 2d 02 2a 35 b5 81 b6
       0.1076 0.2012 0.1283 0.04712 0.08405 0.04694 -0.3254 -0.4065
000070 70 b4 02 b8 90 b8 5a b6 6b b4 90 b5 27 b4 af 30
       -0.2773 -0.501 -0.5703 -0.397 -0.2761 -0.3477 -0.2595 0.1464
000080 ce 36 af 36 93 36 a8 39 51 38 06 36 8b 38 02 37
       0.4253 0.4177 0.411 0.707 0.5396 0.3765 0.568 0.438
000090 81 b1 6f ac a6 33 0f 32 54 25 29 98 e1 af 91 b4
       -0.172 -0.0693 0.239 0.1893 0.02081 -0.002031 -0.1231 -0.2854
0000a0 f3 b1 70 23 44 32 3e 36 34 a6 ba 28 35 26 2a b5
       -0.1859 0.01453 0.1958 0.3901 -0.02423 0.03693 0.02425 -0.3228
0000b0 81 b8 d0 b5 e3 29 3d 34 6d 34 31 2d 09 30 d1 2b
       -0.563 -0.3633 0.046 0.265 0.2766 0.0811 0.1261 0.06107
0000c0 31 b8 83 ba cc b6 b0 1b 18 2a ba 28 9b 97 b2 30
       -0.524 -0.814 -0.4248 0.003754 0.0476 0.03693 -0.001857 0.1467
0000d0 5b 2f 74 29 10 31 c7 2f ce 2a f4 2e fb 2e 73 af
       0.1149 0.0426 0.1582 0.1215 0.05316 0.10864 0.1091 -0.1164
0000e0 a4 a8 b8 a0 f4 a7 89 a9 b0 a8 50 aa 5b ac f1 aa
       -0.03625 -0.00922 -0.03107 -0.04324 -0.03662 -0.04932 -0.06805 -0.05423
0000f0 b5 ac c2 a8 a5 a8 ad a6 28 29 09 2a 15 a4 66 2e
       -0.07355 -0.03717 -0.0363 -0.02608 0.04028 0.04715 -0.01595 0.1
000100 8f 2e 16 2a 11 29 df 24 ed 25 54 b1 0f b0 d0 1e
       0.1025 0.04755 0.03958 0.01903 0.02315 -0.1665 -0.1268 0.006653
000110 6c 27 7c 2c 2e ad c5 ad 5b af 94 a8 76 b1 9d b0
       0.02899 0.07007 -0.08093 -0.09015 -0.1149 -0.03577 -0.1707 -0.1442
000120 f0 2b 13 b1 05 b0 c1 ae ed b7 4a af 7f ad a9 b3
       0.062 -0.1586 -0.1256 -0.1055 -0.4954 -0.1139 -0.0859 -0.2394
000130 93 2e 3e af eb b2 40 b1 e8 b4 ff b7 87 b2 cf a5
       0.1027 -0.11316 -0.2162 -0.1641 -0.3066 -0.4998 -0.204 -0.02269
000140 2e ad 21 2c 83 a2 18 b4 54 b2 c3 b6 80 b8 81 b1
       -0.08093 0.0645 -0.01272 -0.2559 -0.1978 -0.4226 -0.5625 -0.172
000150 a8 ae 60 af 51 29 d8 aa 6d ac a2 ae e4 a6 0b ae
       -0.104 -0.11523 0.04153 -0.05347 -0.06915 -0.10364 -0.02692 -0.0944
000160 8e b0 f5 a6 30 af 74 ac 1d b4 11 b8 9f b6 43 b7
       -0.1423 -0.02718 -0.1123 -0.0696 -0.257 -0.5083 -0.4138 -0.4539
000170 ec b8 6c b6 11 b7 8c b6 f9 b0 01 ad b0 a7 1b a8
       -0.615 -0.4014 -0.4417 -0.4092 -0.1554 -0.0782 -0.03003 -0.03207
000180 97 a4 ef 29 23 ab 0e 21 81 2a 4a 08 5b b0 66 b4
       -0.01793 0.04636 -0.05576 0.00987 0.0508 0.0001309 -0.1361 -0.275
000190 28 b4 5d b4 fe b5 31 ae a2 b3 22 b0 7d 9b 09 2e
       -0.2598 -0.2727 -0.3745 -0.09674 -0.2385 -0.1292 -0.003656 0.0943
0001a0 29 20 2c af 8c 31 1c 22 bc ac 37 2f 20 2d 72 2d
       0.008125 -0.11206 0.1733 0.01193 -0.074 0.11273 0.0801 0.0851
0001b0 d5 32 b7 34 38 33 ad b0 27 a6 7d 2b 32 a5 09 aa
       0.2135 0.2947 0.2256 -0.1461 -0.02403 0.0585 -0.0203 -0.04715
0001c0 aa a9 b2 ac fc af 35 b0 7c 2b db 26 73 26 32 20
       -0.04425 -0.07336 -0.12476 -0.1315 0.05847 0.02678 0.02519 0.008194
0001d0 9e 24 2a 9f f1 a7 ee 26 f6 1e 0a ac 3e 24 56 21
       0.01804 -0.006996 -0.03102 0.02707 0.006798 -0.0631 0.01657 0.01042
0001e0 18 2b 02 2b 5a 2a c0 2a 79 a7 cc 25 fb 1a f0 2c
       0.05542 0.05475 0.04962 0.05273 -0.02919 0.02264 0.003408 0.07715
0001f0 16 26 2c 28 02 2b 46 28 2d 30 f5 31 95 ac 12 29
       0.02377 0.0326 0.05475 0.0334 0.1305 0.1862 -0.0716 0.0396

weight f2 [8]
000000 0e 3d b7 3c 08 3c ab 42 a7 3b 82 3c 83 42 9e 3c
       1.264 1.179 1.008 3.334 0.9565 1.127 3.256 1.154

bias f2 [8]
000000 d3 42 ee 35 ff 3e 50 b6 58 3f 3c b7 89 31 16 3b
       3.412 0.3706 1.749 -0.3945 1.836 -0.4521 0.173 0.8857

running_mean f2 [8]
000000 09 c9 e2 c2 e3 cc 8a bb e8 bb fd c1 66 b9 0d 33
       -10.07 -3.441 -19.55 -0.9424 -0.9883 -2.994 -0.675 0.2203

running_var f2 [8]
000000 b5 55 4b 47 7b 53 a1 50 f5 50 c4 43 1f 51 40 4a
       91.3 7.293 59.84 37.03 39.66 3.883 40.97 12.5

weight f2 [4, 8, 1, 1]
000000 4a b2 7a b0 a8 38 d3 b7 61 38 5f 29 d9 b4 12 34
       -0.1965 -0.1399 0.582 -0.489 0.5474 0.04196 -0.303 0.2544
000010 de b7 91 aa 91 b8 54 2e 60 34 64 26 71 99 ee b4
       -0.4917 -0.0513 -0.571 0.0989 0.2734 0.02496 -0.002657 -0.308
000020 6b 3a 07 b2 65 b6 fd 34 5c b2 22 30 15 32 72 37
       0.8022 -0.1884 -0.3997 0.3118 -0.1987 0.1292 0.1901 0.4653
000030 7a ba a3 ad f1 b8 0c 2d b8 b4 bc b1 44 32 ba 36
       -0.8096 -0.0881 -0.6177 0.07886 -0.295 -0.1792 0.1958 0.4204

weight f2 [4]
000000 ca 3b 15 39 22 3b a2 39
       0.9736 0.6353 0.8916 0.704

bias f2 [4]
000000 63 bb 9d 3f 4f 37 29 42
       -0.9233 1.903 0.4568 3.08

running_mean f2 [4]
000000 3b 3b 97 c0 8d 40 3e c3
       0.904 -2.295 2.275 -3.621

running_var f2 [4]
000000 a9 32 be 3f 85 3b 16 40
       0.2081 1.936 0.94 2.043

weight f2 [4, 8, 1, 1]
000000 62 34 a0 27 b2 39 91 b0 a0 38 a9 a5 b1 b1 44 a0
       0.274 0.02979 0.712 -0.1427 0.578 -0.02211 -0.1779 -0.00833
000010 df b6 2f a7 00 35 48 b7 ed 38 32 31 07 b7 44 b0
       -0.4294 -0.02806 0.3125 -0.455 0.6157 0.1624 -0.4392 -0.1333
000020 a9 b5 cb b2 5e 38 95 36 2c a9 e3 b1 5e 38 33 39
       -0.3538 -0.2123 0.546 0.4114 -0.0404 -0.184 0.546 0.65
000030 01 b3 62 b8 c3 32 dc b4 73 b8 be 35 d4 b1 0b b4
       -0.2189 -0.548 0.2113 -0.3037 -0.556 0.359 -0.1821 -0.2527

weight f2 [4]
000000 af 3a 26 3b a7 37 13 38
       0.8354 0.8936 0.4783 0.5093

bias f2 [4]
000000 18 31 77 38 53 40 53 3d
       0.1592 0.558 2.162 1.331

running_mean f2 [4]
000000 8b 41 4c b8 ec 38 e8 bf
       2.771 -0.537 0.615 -1.977

running_var f2 [4]
000000 61 37 b3 38 2f 36 7d 34
       0.4612 0.5874 0.3865 0.2805

weight f2 [8, 8, 1, 1]
000000 5d b3 ca b2 58 b5 83 b4 7d 36 98 ac d8 b5 0c ba
       -0.2301 -0.2122 -0.334 -0.282 0.4055 -0.0718 -0.3652 -0.756
000010 34 b0 10 3b 7c 1b 0f b5 ee 21 19 2f 7c 33 64 a7
       -0.1313 0.883 0.003654 -0.3162 0.01158 0.1109 0.2339 -0.02887
000020 a7 b5 2b ad 4a b5 79 a4 9e 31 47 39 bd ba 4e 37
       -0.3533 -0.08075 -0.3306 -0.01747 0.1755 0.6597 -0.8423 0.4565
000030 47 9c 38 bb 4c 31 78 36 8f 30 db 2c 42 a1 57 29
       -0.004177 -0.9023 0.1655 0.4043 0.1425 0.07587 -0.01027 0.04172
000040 f9 2f ce 30 3f 3a e9 ab fc 34 28 b0 79 b3 3c ab
       0.1246 0.1501 0.781 -0.0618 0.3115 -0.1299 -0.2335 -0.05652
000050 08 b1 bc ac 20 35 cd b8 86 af 4f b0 df b8 24 ad
       -0.1572 -0.074 0.3203 -0.6 -0.11755 -0.1346 -0.609 -0.0803
000060 24 b4 f8 a6 c9 b8 d1 ac 8d 39 ec 39 77 36 f3 b2
       -0.2588 -0.02722 -0.598 -0.07526 0.694 0.74 0.404 -0.2172
000070 14 29 c7 31 6c 2f b2 38 b7 26 fe 2c 36 30 2f 31
       0.03967 0.1805 0.11597 0.587 0.02623 0.078 0.1316 0.162

weight f2 [8]
000000 e1 3b e0 3e b4 3c 35 3f 73 3d 2b 3c 6f 3d 9f 3d
       0.985 1.719 1.176 1.802 1.362 1.042 1.358 1.405

bias f2 [8]
000000 11 b7 dd 33 2c a5 a1 39 c2 bd 01 3d 1d b4 82 b1
       -0.4417 0.2457 -0.0202 0.7036 -1.439 1.251 -0.257 -0.1721

running_mean f2 [8]
000000 f2 c3 c8 40 4d be 22 bd 0d 3a eb c3 82 af ef 43
       -3.973 2.39 -1.575 -1.283 0.7563 -3.959 -0.1173 3.967

running_var f2 [8]
000000 7e 30 9d 37 b8 34 90 38 38 34 16 36 5f 34 ba 30
       0.1404 0.4758 0.295 0.5703 0.2637 0.3804 0.2732 0.1477

weight f2 [4, 4, 1, 1]
000000 fb 22 e4 38 76 2a 90 b2 5c b6 71 2b 26 30 ca 38
       0.01363 0.6113 0.05048 -0.2051 -0.3975 0.05814 0.1296 0.5986
000010 4b b7 4b 34 f5 a7 a5 35 13 2f a6 b9 4b 30 41 b7
       -0.4558 0.2683 -0.03108 0.3528 0.11053 -0.706 0.1342 -0.4534

weight f2 [4]
000000 2d 39 e1 35 2c 40 d3 3a
       0.647 0.3674 2.086 0.853

bias f2 [4]
000000 85 b5 64 40 c1 bc e4 36
       -0.345 2.195 -1.188 0.4307

running_mean f2 [4]
000000 0c 37 f7 3f 3a 3e fd c0
       0.4404 1.991 1.557 -2.494

running_var f2 [4]
000000 8b 2a 1e 32 80 33 4c 3a
       0.05112 0.1912 0.2344 0.787

weight f2 [4, 4, 3, 3]
000000 59 ad a3 b0 08 2e 09 ab a2 b2 9c 33 b6 a5 82 28
       -0.08356 -0.1449 0.09424 -0.05496 -0.2073 0.2378 -0.02231 0.03522
000010 26 32 3c a9 0a ac 80 b0 25 b1 cb 30 b7 30 de 30
       0.1921 -0.0409 -0.0631 -0.1406 -0.1608 0.1498 0.1473 0.1521
000020 36 2f 31 b1 a1 99 b3 2f b3 a9 9f 2e b4 39 e9 30
       0.1127 -0.1622 -0.002748 0.1203 -0.04453 0.10345 0.713 0.1534
000030 42 b3 97 34 73 22 af 26 fd 24 cc 28 c0 28 9e ad
       -0.2268 0.2869 0.012596 0.02611 0.01949 0.03748 0.0371 -0.08777
000040 6a b2 43 1a 42 ac 5d 2e fc a8 6d b1 bc a7 96 af
       -0.2004 0.003057 -0.0665 0.0994 -0.03894 -0.1696 -0.03021 -0.1185
000050 be 30 3c b6 d3 2d b0 31 10 b0 3a 31 92 b5 c4 a1
       0.1482 -0.3896 0.091 0.1777 -0.127 0.1633 -0.3481 -0.01126
000060 cf 37 d2 a4 0f b8 2f 37 6f b3 7d ac 47 1e 64 a6
       0.488 -0.01883 -0.5073 0.449 -0.2323 -0.0701 0.00613 -0.02496
000070 37 2c 3f 33 b9 30 ce b7 9f a7 b7 ac e1 28 8f 2b
       0.06586 0.2264 0.1476 -0.4878 -0.02977 -0.07367 0.03812 0.05905
000080 03 30 82 29 a3 ba f9 b1 ef 3c 09 b3 0d 2f 9e 18
       0.1254 0.04303 -0.8296 -0.1866 1.233 -0.2198 0.11017 0.002254
000090 05 30 6f 27 4d 2e a7 b1 30 30 d8 9e 1d aa cb b0
       0.1256 0.02904 0.09845 -0.1766 0.1309 -0.006683 -0.04776 -0.1498
0000a0 90 ac 1a b0 39 b0 93 30 d9 2b 60 38 91 2d 7e 1f
       -0.0713 -0.1282 -0.132 0.143 0.0613 0.547 0.087 0.007317
0000b0 6f 2f 4f a8 11 32 a4 b3 50 2f c8 b3 3c 38 15 b3
       0.11615 -0.03366 0.1896 -0.2388 0.11426 -0.2432 0.5293 -0.2213
0000c0 91 aa dd a9 4b 28 95 b0 ea af c4 9a 30 2c 78 b7
       -0.0513 -0.0458 0.03354 -0.1432 -0.12366 -0.003304 0.0654 -0.4668
0000d0 92 35 2b 2f 9e b3 d3 30 87 a5 ff b3 6a b4 08 2b
       0.3481 0.112 -0.238 0.1508 -0.02159 -0.2499 -0.276 0.05493
0000e0 6d a1 46 31 9e b1 ad aa 0e 31 74 2b 13 b6 47 82
       -0.0106 0.1648 -0.1755 -0.05215 0.158 0.05823 -0.3796 -3.475e-05
0000f0 a9 30 90 ad 80 36 18 ab bd 2c c1 37 1a 2f cd b2
       0.1456 -0.0869 0.4062 -0.05542 0.07404 0.4846 0.11096 -0.2125
000100 9f 28 c0 b3 e4 b1 5a 2e f2 b1 1a 30 f8 2e e3 2d
       0.0361 -0.2422 -0.1841 0.09924 -0.1858 0.1282 0.1089 0.092
000110 47 38 cb 31 d9 38 a5 28 86 b5 37 37 9f b2 b1 b8
       0.5347 0.181 0.606 0.0363 -0.3452 0.451 -0.2069 -0.5864

weight f2 [4]
000000 46 3e 1b 3b 70 39 74 3a
       1.568 0.888 0.6797 0.8066

bias f2 [4]
000000 5f b9 90 40 18 3c 45 3f
       -0.6714 2.281 1.023 1.817

running_mean f2 [4]
000000 03 27 8d a8 e1 3c 50 3e
       0.02739 -0.03555 1.22 1.578

running_var f2 [4]
000000 99 32 54 35 71 33 ac 35
       0.2062 0.333 0.2325 0.3545

weight f2 [16, 8, 3, 3]
000000 c8 ad d6 32 f0 2e 60 32 f9 23 e3 b1 11 aa bc b0
       -0.09033 0.2136 0.1084 0.1992 0.01557 -0.184 -0.0474 -0.148
000010 cc 28 93 20 ad 35 75 96 d4 35 d1 b6 e1 b2 cc b2
       0.03748 0.008934 0.3547 -0.001576 0.3643 -0.426 -0.215 -0.2124
000020 7f ac c2 2c 62 24 c5 30 fc aa 05 29 85 21 f3 2e
       -0.07025 0.07434 0.01712 0.149 -0.05457 0.0392 0.01078 0.1086
000030 04 aa e9 a5 2c 20 a8 28 b1 b2 75 2b 24 b4 07 37
       -0.047 -0.02309 0.00815 0.03638 -0.2091 0.05826 -0.2588 0.4392
000040 7d 2f 77 34 58 21 11 b3 65 af 25 31 62 32 ef 1f
       0.117 0.279 0.01044 -0.2208 -0.11554 0.1608 0.1995 0.007748
000050 60 31 3d b1 54 8c 3e b2 ac a5 fd b2 e9 35 d3 ad
       0.168 -0.1637 -0.0002642 -0.1951 -0.02216 -0.2184 0.3694 -0.091
000060 dc 30 72 ad b5 ac 7f 2a 38 2c 2c a0 2d b2 5a 2c
       0.1519 -0.0851 -0.07355 0.05075 0.0659 -0.00815 -0.193 0.068
000070 54 2f fe 1b 98 34 33 b4 82 2f da b2 fd a1 d5 ac
       0.1145 0.003902 0.287 -0.2625 0.1173 -0.2141 -0.011696 -0.0755
000080 07 b1 be 2e b4 ae 6c 26 bc ab 28 2e 4f a8 95 b1
       -0.1571 0.10535 -0.10474 0.02509 -0.06042 0.0962 -0.03366 -0.1744
000090 f2 24 54 b1 f7 2c b0 ad 4e ad 61 a8 65 ad fa b1
       0.01932 -0.1665 0.0776 -0.08887 -0.0829 -0.0342 -0.0843 -0.1868
0000a0 69 ad 55 b0 cc 32 6a 2d 2d ae 1b 35 91 a8 c5 1a
       -0.08453 -0.1354 0.2124 0.0846 -0.0965 0.319 -0.03568 0.003305
0000b0 ab 32 ae ae 87 20 ab 2b e1 ad e3 25 11 32 0f b0
       0.2084 -0.1044 0.00884 0.0599 -0.09186 0.023 0.1896 -0.1268
0000c0 97 2a b0 33 3a b0 fd 30 da ab 17 aa 0e 34 9d b6
       0.05148 0.2402 -0.1321 0.1559 -0.06134 -0.04758 0.2534 -0.4133
0000d0 50 a0 e5 2e f8 b4 31 a4 ec aa 38 b1 8a 2d 60 b1
       -0.00842 0.1077 -0.3105 -0.01637 -0.05408 -0.1631 0.08655 -0.168
0000e0 9a 2b e6 30 ae ac 7c 2e 35 2f 97 24 fe ad 0b b3
       0.0594 0.1531 -0.0731 0.1013 0.1126 0.01793 -0.0936 -0.2201
0000f0 e8 ad b7 2e f5 b1 00 2c ea 31 01 b2 15 2e f9 19
       -0.0923 0.1049 -0.1862 0.0625 0.1848 -0.1876 0.09503 0.002916
000100 32 29 fe 2b 3f a8 57 ae 4c 2a bf a8 6e b0 e9 b0
       0.0406 0.06244 -0.03317 -0.09906 0.0492 -0.03708 -0.1384 -0.1534
000110 a3 22 5b 2d a1 b1 2c 2f 2c 28 36 af a9 24 fb 1f
       0.01296 0.0837 -0.1759 0.11206 0.0326 -0.1127 0.0182 0.007793
000120 b0 b1 33 b3 ee b0 55 b3 14 b4 dc b3 e0 2e 8e 9d
       -0.1777 -0.225 -0.154 -0.2291 -0.255 -0.2456 0.1074 -0.005424
000130 01 ac 62 ac fd a2 48 22 22 9f d2 af 77 b0 43 b0
       -0.06256 -0.0685 -0.01365 0.01227 -0.006966 -0.1222 -0.1395 -0.1332
000140 7d b5 29 b4 cc 1d b7 25 5f 2c 08 2a f8 29 c4 a8
       -0.343 -0.26 0.00566 0.02232 0.0683 0.04712 0.04663 -0.03723
000150 a5 af 63 b4 39 b5 b3 ae dd af 9a b0 cd 27 86 aa
       -0.11945 -0.2742 -0.3264 -0.1047 -0.12286 -0.1438 0.03047 -0.05096
000160 d6 28 6a 2b 92 ad 35 b0 3b 21 9c a1 a4 1f 55 ac
       0.03778 0.05792 -0.08704 -0.1315 0.010216 -0.010956 0.00746 -0.0677
000170 5c b2 fa af 22 ac 22 b0 81 b0 1c a6 cf 2c 57 2d
       -0.1987 -0.12463 -0.0646 -0.1292 -0.1407 -0.02386 0.07513 0.08344
000180 0d 31 72 34 5a 31 30 20 95 ad 51 a5 7d ab 09 b1
       0.1578 0.2778 0.1672 0.00818 -0.0872 -0.02077 -0.0585 -0.1573
000190 74 b2 6d b2 95 b5 5d b5 ce 21 e9 b1 95 b3 73 2e
       -0.2017 -0.2008 -0.3489 -0.3352 0.01134 -0.1847 -0.2369 0.10077
0001a0 80 2f f7 2a 6a 2e 40 2d 5f af ba ab 37 ae 07 b3
       0.1172 0.0544 0.1002 0.08203 -0.1152 -0.06036 -0.0971 -0.2196
0001b0 b4 0d 97 b2 ca af 96 32 92 2b df b2 45 a9 d4 30
       0.000348 -0.2059 -0.1217 0.2058 0.05914 -0.2147 -0.04117 0.1509
0001c0 f5 27 67 ae 8f 30 44 31 70 b1 00 b6 a6 29 8f 31
       0.03108 -0.10004 0.1425 0.1646 -0.1699 -0.375 0.04413 0.1737
0001d0 f6 24 da b0 7d b1 22 b2 b8 a5 94 1d 4f b2 79 a9
       0.01938 -0.1516 -0.1715 -0.1917 -0.02234 0.005447 -0.1971 -0.04276
0001e0 c8 2e 07 2e 6b a9 a1 2c e0 b2 28 b2 68 34 77 33
       0.10596 0.0942 -0.04233 0.0723 -0.2148 -0.1924 0.2754 0.2333
0001f0 74 b1 a4 ab 8f 32 a3 2f b2 aa 24 aa 22 2d 8b 26
       -0.1704 -0.0597 0.205 0.1193 -0.0523 -0.04797 0.0802 0.02556

weight f2 [16]
000000 89 39 3c 3b 7d 3c 21 3a f1 39 a4 39 18 3c cb 3a
       0.692 0.9043 1.122 0.766 0.7427 0.705 1.023 0.849
000010 6f 39 b4 39 7f 3a 81 3a 06 3c c3 3a 04 3a ee 39
       0.679 0.713 0.812 0.813 1.006 0.845 0.752 0.741

bias f2 [16]
000000 65 ba 1a af ef 3c cf ac cb b9 ca b2 32 32 1e 34
       -0.7993 -0.11096 1.233 -0.07513 -0.724 -0.2122 0.1936 0.2573
000010 64 38 87 39 45 33 3e 3c c9 b3 6f b2 49 38 70 3a
       0.549 0.691 0.2272 1.061 -0.2433 -0.201 0.5356 0.8047

running_mean f2 [16]
000000 31 34 fc b7 68 b6 05 36 c4 37 b8 30 48 39 83 bc
       0.262 -0.499 -0.4004 0.3762 0.4854 0.1475 0.66 -1.128
000010 31 3d 76 37 bb a4 ec b3 68 ae 4b 3f 15 2d 6f 3e
       1.298 0.4663 -0.01848 -0.2476 -0.1001 1.823 0.0794 1.608

running_var f2 [16]
000000 19 3d 21 3f 48 44 d3 3e 57 3e 02 3d 2b 40 1b 40
       1.274 1.782 4.28 1.706 1.585 1.252 2.084 2.053
000010 2c 47 75 40 b8 40 21 43 03 41 90 44 e3 44 79 44
       7.17 2.229 2.36 3.564 2.506 4.562 4.887 4.473

weight f2 [8, 16, 1, 1]
000000 86 a8 4d b6 19 b4 af ab fc 28 d8 ac 80 b5 4f a9
       -0.03534 -0.3938 -0.256 -0.06003 0.03894 -0.0757 -0.3438 -0.04147
000010 cd 38 a9 32 49 b7 4c b3 6c 26 cf a6 3f b6 6b 36
       0.6 0.2081 -0.4553 -0.228 0.02509 -0.0266 -0.3904 0.4011
000020 b3 af 26 ab 3b 28 4c 31 35 b0 cb b2 5d af 8f 31
       -0.1203 -0.05585 0.03305 0.1655 -0.1315 -0.2123 -0.11505 0.1737
000030 1f a7 cd a6 09 b2 c3 b2 7e b4 a7 b4 45 94 fc a7
       -0.02782 -0.02657 -0.1886 -0.2113 -0.2808 -0.2908 -0.001042 -0.03119
000040 08 2a 48 2d f6 34 5e b3 4d a8 5b 20 11 34 ae b0
       0.04712 0.0825 0.31 -0.2302 -0.0336 0.00851 0.2542 -0.1462
000050 db b1 f5 b0 36 34 19 b6 35 37 da ad 59 27 21 b3
       -0.183 -0.1549 0.2632 -0.381 0.4504 -0.09143 0.0287 -0.2228
000060 82 9e 81 36 a4 30 91 af ec 9e ab a8 7b b1 57 b4
       -0.006355 0.4065 0.145 -0.1182 -0.00676 -0.03647 -0.1713 -0.2712
000070 1e 2e 22 31 de 35 ab 2a 3a b4 bb 31 5a 37 71 37
       0.0956 0.1604 0.3667 0.0521 -0.2642 0.1791 0.4595 0.465
000080 9d a9 b6 b0 e6 b4 2a 35 a1 ae 4a aa 37 b2 be b1
       -0.04385 -0.1472 -0.3062 0.3228 -0.1036 -0.04913 -0.1942 -0.1794
000090 fa 29 66 25 17 b0 24 b1 60 b0 08 39 d3 b6 c8 2a
       0.0467 0.02109 -0.1278 -0.1606 -0.1367 0.629 -0.4265 0.05298
0000a0 c8 33 e0 a5 d5 a5 dc ad 3b 34 43 30 ec b4 65 b6
       0.2432 -0.02295 -0.02278 -0.09155 0.2644 0.1332 -0.3076 -0.3997
0000b0 95 2f 9b b2 27 2f 49 b6 d6 b4 9f ac fa 34 22 b8
       0.11847 -0.2064 0.11176 -0.3928 -0.3022 -0.0722 0.311 -0.5166
0000c0 64 b8 b7 a4 c3 24 d9 b4 77 b8 a8 b5 d7 a1 a9 b0
       -0.549 -0.01842 0.0186 -0.303 -0.558 -0.3535 -0.011406 -0.1456
0000d0 8b 31 c9 b0 1c af 74 a2 41 b1 4f b8 61 2c 0a b0
       0.1732 -0.1495 -0.1111 -0.0126 -0.1642 -0.5386 0.0684 -0.1262
0000e0 73 37 be ac 31 b7 15 b6 eb 37 18 37 41 2c a2 b7
       0.4656 -0.0741 -0.4495 -0.3801 0.4949 0.4434 0.06647 -0.477
0000f0 7e b4 3a ae 4c b1 98 33 89 b4 ab b1 d4 af 5b 35
       -0.2808 -0.0973 -0.1655 0.2373 -0.2834 -0.1771 -0.1223 0.3347

weight f2 [8]
000000 28 36 47 39 b6 39 9f 38 34 38 84 36 14 40 d4 36
       0.3848 0.6597 0.714 0.5776 0.5254 0.4072 2.04 0.4268

bias f2 [8]
000000 23 3c a3 34 40 32 d4 36 54 b8 78 3c 2c b4 28 3c
       1.034 0.2898 0.1953 0.4268 -0.541 1.117 -0.2607 1.039

running_mean f2 [8]
000000 d5 b4 99 b2 56 b1 55 3a 79 b9 3a bb 2d 20 4c b9
       -0.302 -0.2062 -0.1667 0.7915 -0.684 -0.9033 0.008156 -0.662

running_var f2 [8]
000000 3b 36 99 32 78 35 96 37 92 32 18 35 aa 36 04 34
       0.3894 0.2062 0.3418 0.474 0.2053 0.3184 0.4165 0.251

weight f2 [8, 16, 1, 1]
000000 2f 2f 78 28 46 b7 c9 b3 0d 2d 39 2a 20 b5 13 b0
       0.11224 0.0349 -0.4546 -0.2433 0.0789 0.0486 -0.3203 -0.1273
000010 b5 36 f1 b5 b2 a4 43 b6 58 b4 0c b5 34 aa 73 a6
       0.4192 -0.3713 -0.01834 -0.3914 -0.2715 -0.3154 -0.04846 -0.02519
000020 5b 2e 31 b2 ba b2 dc 27 e7 2c f0 2f a7 b1 34 37
       0.0993 -0.1935 -0.2102 0.0307 0.0766 0.124 -0.1766 0.4502
000030 99 31 cb ae 6f b4 4b b3 ad 32 33 b6 93 b2 73 b0
       0.1749 -0.10614 -0.277 -0.2279 0.2086 -0.3875 -0.2054 -0.139
000040 b4 b3 ed a6 f7 2c 11 35 f6 b1 59 b1 97 30 5f 2c
       -0.2407 -0.02705 0.0776 0.3167 -0.1863 -0.1671 0.1434 0.0683
000050 f4 39 5b 33 c6 29 0d 2c 82 2a 48 ab 3d 2e 0f af
       0.744 0.2299 0.0451 0.0633 0.05084 -0.0569 0.0975 -0.1103
000060 79 31 6f a9 df 30 85 b0 d8 34 3f 33 e8 b0 ef aa
       0.171 -0.04245 0.1522 -0.1412 0.3027 0.2264 -0.1533 -0.05417
000070 49 a0 fa ac 8c ad ea 31 46 ae 66 b4 05 ac 38 2c
       -0.00837 -0.07776 -0.0867 0.1848 -0.098 -0.275 -0.0628 0.0659
000080 56 35 1f 24 1c a7 38 34 e2 36 8b 35 d9 30 80 2d
       0.3335 0.0161 -0.02777 0.2637 0.4302 0.3464 0.1515 0.08594
000090 7c 34 20 35 95 30 97 31 40 ac b5 35 19 35 9e ad
       0.2803 0.3203 0.1432 0.1747 -0.0664 0.3567 0.3186 -0.08777
0000a0 94 af 17 ad 7d ad fb b0 d1 b0 da a9 56 35 91 ad
       -0.1184 -0.0795 -0.08575 -0.1556 -0.1505 -0.04572 0.3335 -0.087
0000b0 5b 34 6f b8 23 b4 da 34 7f 32 b5 b2 b1 b3 6f 32
       0.2722 -0.554 -0.2585 0.3032 0.203 -0.2096 -0.2404 0.201
0000c0 03 b0 68 33 1d 33 59 ac ec a1 dc ac 55 b2 10 b2
       -0.1254 0.2314 0.2223 -0.06793 -0.011566 -0.0759 -0.1979 -0.1895
0000d0 16 a3 99 2d 1e 25 0d 35 35 31 c3 a7 33 36 36 af
       -0.01384 0.08746 0.01999 0.3157 0.1627 -0.03032 0.3875 -0.1127
0000e0 1b a5 ba 24 4d b4 95 16 ba 29 d8 0c 60 b2 48 a6
       -0.01994 0.01846 -0.2688 0.001607 0.04474 0.0002956 -0.1992 -0.02454
0000f0 37 b7 33 34 6d 2c f3 b4 47 ac 76 31 27 24 1c 35
       -0.451 0.2625 0.06915 -0.3093 -0.06683 0.1707 0.01622 0.3193

weight f2 [8]
000000 b1 3a 6a 3c c6 3b ad 3c ab 3c e6 3a bf 3c c1 3a
       0.8364 1.104 0.9717 1.169 1.167 0.8623 1.187 0.844

bias f2 [8]
000000 04 35 25 38 87 34 30 b8 43 b5 a9 3d 96 b4 48 38
       0.3135 0.518 0.283 -0.5234 -0.3289 1.415 -0.2866 0.535

running_mean f2 [8]
000000 77 bc 08 b9 8e 39 2f 2f d7 37 58 2a cc 38 31 b7
       -1.116 -0.629 0.6943 0.11224 0.49 0.04956 0.5996 -0.4495

running_var f2 [8]
000000 50 31 5f 31 fe 32 20 2c 75 38 46 32 be 30 82 2f
       0.166 0.1678 0.2185 0.06445 0.557 0.196 0.1482 0.1173

weight f2 [16, 16, 1, 1]
000000 1a b3 c6 b6 1f 33 64 1d 75 b2 99 b0 44 35 08 b1
       -0.2219 -0.4233 0.2225 0.005264 -0.2018 -0.1437 0.329 -0.1572
000010 43 b0 a2 b5 20 2f c1 30 6a b4 6b b3 ca b0 bd 33
       -0.1332 -0.352 0.1113 0.1486 -0.276 -0.2318 -0.1497 0.2418
000020 f5 b7 a8 34 d4 2a 3e b0 69 a6 c5 af 6d b0 7b 2c
       -0.4973 0.291 0.05334 -0.1326 -0.02504 -0.1214 -0.1383 0.07
000030 2c ab f6 b5 20 1a 99 30 38 b1 3e 2b 38 2e c1 31
       -0.05603 -0.3726 0.00299 0.1437 -0.1631 0.05658 0.09717 0.1798
000040 2d b8 83 b1 d9 30 52 b6 b7 36 d1 33 13 b0 93 26
       -0.522 -0.1722 0.1515 -0.395 0.4197 0.2443 -0.1273 0.02568
000050 73 b1 a8 97 37 31 52 32 8c 2e 4c b1 d2 b5 eb b2
       -0.1703 -0.001869 0.163 0.1975 0.1023 -0.1655 -0.3638 -0.2162
000060 55 33 dc b0 a6 29 e8 34 b7 b2 f2 b0 05 30 4f 34
       0.2291 -0.1519 0.04413 0.3066 -0.2098 -0.1545 0.1256 0.2693
000070 bb b4 0a 33 f2 aa 4e 34 d7 38 91 34 d2 aa ce b4
       -0.2957 0.22 -0.05426 0.269 0.605 0.2854 -0.05328 -0.3003
000080 e9 b7 fa 30 1e 33 66 36 eb a9 57 29 83 a3 1a 35
       -0.4944 0.1555 0.2224 0.4 -0.04623 0.04172 -0.01467 0.3188
000090 dc 2f b6 33 1e b3 33 b0 11 b0 e1 29 a9 ae 32 b2
       0.1228 0.241 -0.2224 -0.1312 -0.1271 0.04593 -0.10406 -0.1936
0000a0 80 b5 40 2a fc b3 57 2a a2 b5 e2 32 30 b0 14 b5
       -0.3438 0.04883 -0.2495 0.04953 -0.352 0.2151 -0.1309 -0.3174
0000b0 70 31 f1 32 78 a8 f8 19 52 a7 39 b2 93 2d 26 34
       0.1699 0.2169 -0.0349 0.002914 -0.0286 -0.1945 0.0871 0.2593
0000c0 de 36 9c b1 74 b4 d5 b4 18 b2 a6 ab 0a ae 0a b9
       0.4292 -0.1753 -0.2783 -0.302 -0.1904 -0.05975 -0.09436 -0.63
0000d0 02 b2 e3 a8 10 b0 7f 2f b5 b2 89 ac bb b0 80 2f
       -0.1877 -0.03818 -0.127 0.1171 -0.2096 -0.07086 -0.1478 0.1172
0000e0 29 b0 13 b1 c3 2a d8 b0 41 24 05 ac c6 9f a0 38
       -0.13 -0.1586 0.05283 -0.1514 0.01662 -0.0628 -0.00759 0.578
0000f0 d9 b6 57 b4 a6 b9 1a ac c3 b2 d3 28 93 b0 0b 33
       -0.428 -0.2712 -0.706 -0.0641 -0.2113 0.0377 -0.143 0.2201
000100 68 a7 c1 b1 76 b4 05 ad 19 37 6b b4 a9 ad ee af
       -0.02893 -0.1798 -0.2788 -0.0784 0.4436 -0.2761 -0.08844 -0.1239
000110 03 36 3d ac a5 38 cf af 38 2c 55 28 25 b5 0d 33
       0.3757 -0.0662 0.5806 -0.122 0.0659 0.03384 -0.3215 0.2203
000120 0e 36 c9 38 07 b6 bf af 25 2f 02 38 ae 2e 0f b6
       0.3784 0.598 -0.3767 -0.12103 0.11163 0.501 0.1044 -0.3787
000130 9d 1c bb 33 0f b0 2d a6 9d b8 1c 35 f8 24 66 ad
       0.004505 0.2416 -0.1268 -0.02412 -0.5767 0.3193 0.01941 -0.08435
000140 6e a9 07 b0 51 36 35 ac 5b aa b5 33 f1 b2 8f 36
       -0.04242 -0.1259 0.3948 -0.06573 -0.04965 0.2408 -0.2169 0.41
000150 66 39 5a b2 ae b0 08 28 02 28 73 b5 70 a5 b3 2d
       0.675 -0.1985 -0.1462 0.0315 0.0313 -0.3406 -0.02124 0.08905
000160 f5 b5 df ac e1 2c 80 31 3b 26 7e a7 b8 b5 e8 aa
       -0.3723 -0.0761 0.07623 0.1719 0.02434 -0.02927 -0.3574 -0.05396
000170 f3 aa a5 ab f7 b5 ee 29 42 32 f2 b4 bf b4 0b 33
       -0.0543 -0.05972 -0.3728 0.04633 0.1956 -0.309 -0.2966 0.2201
000180 46 b8 34 a9 59 b5 c1 b1 07 9a 32 36 cc b4 aa 2b
       -0.534 -0.04065 -0.3342 -0.1798 -0.002943 0.3872 -0.2998 0.05988
000190 ce 2e 83 2d 99 2e 06 30 6a b7 b1 36 8e 30 4e b0
       0.1063 0.0861 0.1031 0.1257 -0.4634 0.4182 0.1423 -0.1345
0001a0 a8 38 6f ad 46 b0 b4 b4 da 30 33 b0 ea b7 95 35
       0.582 -0.0849 -0.1335 -0.294 0.1516 -0.1312 -0.4946 0.3489
0001b0 f8 30 8b 24 56 b1 c7 21 9e b7 e3 34 eb b2 ab b4
       0.1553 0.01775 -0.1667 0.011284 -0.476 0.3054 -0.2162 -0.2917
0001c0 ad b1 a1 ad d6 b3 a1 ab 0a aa 9b 2a a3 b1 f9 ad
       -0.1774 -0.08795 -0.2449 -0.0596 -0.04718 0.0516 -0.1761 -0.0933
0001d0 a6 aa 42 b0 1e ad 10 2a a6 ab 43 33 88 a9 31 b6
       -0.05194 -0.133 -0.07996 0.04736 -0.05975 0.2269 -0.0432 -0.387
0001e0 b3 b5 66 2f dd 15 45 2a af 2b 4e 34 db 36 d6 b1
       -0.3562 0.1156 0.001431 0.04898 0.06003 0.269 0.4285 -0.1824
0001f0 22 2d 57 b3 73 2f b1 b1 d5 ac e0 b4 e1 31 0a b0
       0.0802 -0.2294 0.1164 -0.1779 -0.0755 -0.3047 0.1837 -0.1262

weight f2 [16]
000000 11 39 f4 38 87 3a c6 35 34 39 a0 3b 94 3b 4d 39
       0.6333 0.619 0.816 0.3608 0.6504 0.953 0.9473 0.6626
000010 49 35 42 3a e6 35 f5 38 8b 36 0f 38 d1 3c b4 37
       0.3303 0.782 0.3687 0.6196 0.409 0.5073 1.204 0.4814

bias f2 [16]
000000 3c 2b e7 37 de b0 f6 3c 02 b3 d9 2e 84 aa 43 39
       0.05652 0.494 -0.1521 1.24 -0.219 0.107 -0.0509 0.6577
000010 53 38 03 30 34 34 54 38 2e 40 c6 2d 4e a5 4e 39
       0.5405 0.1254 0.2627 0.541 2.09 0.0902 -0.02072 0.663

running_mean f2 [16]
000000 3f bd 0d b9 28 bb d3 39 be 39 d7 b6 66 bd 72 b3
       -1.312 -0.6313 -0.8945 0.728 0.718 -0.4275 -1.35 -0.2327
000010 08 b9 fa 3e 75 35 b5 bb 60 34 6d 32 57 b8 59 ac
       -0.629 1.744 0.341 -0.9634 0.2734 0.2008 -0.5425 -0.06793

running_var f2 [16]
000000 39 37 37 36 d9 38 5b 3b e1 36 9f 38 8a 39 a3 3c
       0.4514 0.3884 0.606 0.9194 0.43 0.5776 0.6924 1.159
000010 99 38 2f 3d 71 39 d7 38 3d 3d c2 3c 6c 38 e8 37
       0.5747 1.296 0.68 0.605 1.31 1.189 0.5527 0.4941

weight f2 [8, 8, 1, 1]
000000 f3 30 4f 34 70 b4 04 b1 11 28 e9 af 66 ac e5 b8
       0.1547 0.2693 -0.2773 -0.1567 0.03177 -0.1236 -0.0687 -0.612
000010 5d b6 77 a6 82 33 9e b5 f6 b5 76 b5 b7 34 a6 32
       -0.3977 -0.02525 0.2346 -0.351 -0.3726 -0.3413 0.2947 0.2078
000020 7c 17 01 b4 20 37 81 38 39 b3 b5 b4 6b b5 19 2e
       0.001827 -0.2502 0.4453 0.563 -0.2257 -0.2942 -0.3386 0.0953
000030 6a b4 48 22 53 2c 8e 35 8e 2c b0 38 9e 2f 1a ad
       -0.276 0.01227 0.06757 0.3472 0.07117 0.586 0.119 -0.0797
000040 a6 31 0f b8 38 35 46 b4 98 b2 6f 36 8f 23 c1 2f
       0.1765 -0.5073 0.3262 -0.267 -0.206 0.402 0.01476 0.12115
000050 f5 38 47 ac 24 b1 1f 2a d1 32 11 ac 7e a7 5a b2
       0.6196 -0.06683 -0.1606 0.04782 0.213 -0.06354 -0.02927 -0.1985
000060 77 30 a4 29 46 30 8f ad 98 28 27 30 e0 b0 ae 39
       0.1395 0.04407 0.1335 -0.08685 0.0359 0.1298 -0.1523 0.71
000070 89 b2 2e ac cf 2f 1e b6 94 37 3d 30 5d b0 1b b2
       -0.2042 -0.0653 0.122 -0.3823 0.4736 0.1324 -0.1364 -0.1908

weight f2 [8]
000000 f5 3c 5c 39 b4 3b 97 3a 27 3a 1b 39 62 39 7f 3a
       1.239 0.67 0.963 0.8237 0.769 0.638 0.673 0.812

bias f2 [8]
000000 45 b8 d3 3f 5e b0 74 a9 2e b6 9b b5 73 b8 1c 36
       -0.5337 1.956 -0.1365 -0.0426 -0.3862 -0.3503 -0.556 0.3818

running_mean f2 [8]
000000 3d b8 d7 b5 45 aa 11 36 8e 37 2b 32 f5 39 83 b6
       -0.53 -0.365 -0.04898 0.3792 0.4722 0.1927 0.7446 -0.407

running_var f2 [8]
000000 a6 2c fe 30 d6 31 a3 2c 40 2b 9c 2d a3 2d fe 2c
       0.07263 0.156 0.1824 0.07245 0.05664 0.08765 0.0881 0.078

weight f2 [8, 8, 3, 3]
000000 b9 af 5c ab cf 2b 40 af 8a ad 45 2d ec 2d f7 27
       -0.12067 -0.0575 0.061 -0.1133 -0.08655 0.08234 0.0925 0.03111
000010 07 ad a7 ab 41 b2 09 b5 1c aa 49 34 9f b5 b6 b1
       -0.07855 -0.05978 -0.1954 -0.3147 -0.04773 0.2678 -0.3513 -0.1785
000020 6b ae 95 b1 fa 2d c1 28 bf ad bc 30 9d 98 fe b0
       -0.1003 -0.1744 0.0934 0.03714 -0.0898 0.148 -0.002253 -0.156
000030 e6 a6 04 ae cd 26 94 31 31 ab 16 ad 1c ac 7b b2
       -0.02695 -0.094 0.02657 0.1743 -0.05618 -0.07947 -0.0642 -0.2025
000040 48 30 2d af b0 ad e9 ab 2b 2e 8b 23 fe b4 65 af
       0.1338 -0.1121 -0.08887 -0.0618 0.0964 0.01473 -0.312 -0.11554
000050 b8 b1 7b 30 2b a1 9a 34 ab 31 91 21 b3 31 59 ac
       -0.1787 0.14 -0.01009 0.2876 0.1771 0.01087 0.1781 -0.06793
000060 bc 2c 20 b2 f6 38 ad a9 a8 aa fa 2a 88 2d 9d a1
       0.074 -0.1914 0.62 -0.04434 -0.052 0.0545 0.0864 -0.01096
000070 07 32 20 2b be a8 f6 35 98 26 19 34 47 35 e1 a8
       0.1884 0.05566 -0.03705 0.3726 0.02576 0.256 0.3298 -0.03812
000080 09 2c 09 35 0f ac 09 9d 8b 2e fd 9d c6 ae a8 ad
       0.06305 0.3147 -0.0634 -0.004917 0.10223 -0.005848 -0.10583 -0.0884
000090 c3 33 8c 2f b9 30 8d 28 d6 b1 c8 ad ec 27 21 25
       0.2426 0.1179 0.1476 0.03555 -0.1824 -0.09033 0.03094 0.02003
0000a0 b5 b0 ea ad 58 ae 15 b2 43 2e e3 30 2c 2d 99 ae
       -0.1471 -0.0924 -0.0991 -0.1901 0.09784 0.1527 0.0808 -0.1031
0000b0 f6 a4 b2 29 ab 2b 66 24 83 9d 57 31 a8 2c 9c a0
       -0.01938 0.0445 0.0599 0.01718 -0.005383 0.1669 0.07275 -0.009
0000c0 b1 2f 7d 30 42 34 60 9b d4 a8 00 32 89 ae 68 b4
       0.1202 0.1403 0.266 -0.003601 -0.03772 0.1875 -0.1021 -0.2754
0000d0 eb a6 99 ad d3 a5 7f 2c ec 2c 83 2e f6 33 ab 24
       -0.02702 -0.08746 -0.02275 0.07025 0.0769 0.10175 0.2488 0.01823
0000e0 60 a7 5b b4 57 1e 32 ae 91 1e e1 ab 60 32 78 33
       -0.02881 -0.2722 0.00619 -0.0968 0.006413 -0.06155 0.1992 0.2334
0000f0 ac b3 6d b1 13 b6 d5 af 42 b1 12 b6 78 b2 c0 a5
       -0.2397 -0.1696 -0.3796 -0.1224 -0.1643 -0.3794 -0.2021 -0.02246
000100 28 ad a8 aa bc a9 3a ae 44 b5 a6 b1 f8 36 62 ab
       -0.08057 -0.052 -0.0448 -0.0973 -0.329 -0.1765 0.4355 -0.05768
000110 58 ac ca 32 6d b1 5d 9d 2d 30 c7 b0 c9 2d c7 22
       -0.0679 0.2122 -0.1696 -0.005238 0.1305 -0.1493 0.0904 0.01324
000120 76 2f e2 24 80 32 18 a4 d6 a3 c2 a8 a8 b0 09 2d
       0.1166 0.01907 0.2031 -0.01599 -0.015305 -0.03717 -0.1455 0.0787
000130 aa ad 8c a6 87 30 28 b3 66 2c 9b b6 ed ad f9 28
       -0.0885 -0.02557 0.1415 -0.2236 0.0687 -0.4128 -0.0926 0.03885
000140 ea b7 ed 2e 42 b0 53 b2 8d 2d 52 2e fe 2c 04 30
       -0.4946 0.1082 -0.133 -0.1976 0.08673 0.09875 0.078 0.1255
000150 f0 b1 bd 2f 36 b0 26 34 1b b4 68 2c fc 25 f3 b1
       -0.1855 0.1209 -0.1316 0.2593 -0.2566 0.06885 0.02338 -0.1859
000160 1b 28 00 b4 cc 35 ac aa 58 31 7d b2 71 ad 08 b0
       0.03207 -0.25 0.3623 -0.05212 0.167 -0.2028 -0.085 -0.126
000170 99 b2 a4 30 7c b5 2c 2e 87 28 2b b3 fa b2 d7 2c
       -0.2062 0.145 -0.3428 0.09644 0.03537 -0.224 -0.218 0.0756
000180 1b 2c 3c 2f 95 ad 58 2a 67 30 3f b6 bc 2e fe 32
       0.06415 0.11304 -0.0872 0.04956 0.1376 -0.3904 0.1052 0.2185
000190 fe 34 ef b1 f5 29 c0 2f cc b3 0b 2d 13 30 5a 2c
       0.312 -0.1854 0.04654 0.1211 -0.2437 0.0788 0.1273 0.068
0001a0 1e 2e d8 ae 6b 2f 3d b1 09 25 b2 28 4d b0 e4 ac
       0.0956 -0.10693 0.1159 -0.1637 0.01967 0.03668 -0.1344 -0.0764
0001b0 a6 9d ed b3 c4 af 90 24 bb 14 71 af 6f ac 48 ab
       -0.005516 -0.2477 -0.12134 0.01782 0.001155 -0.1163 -0.0693 -0.0569
0001c0 41 26 fa af 21 b3 6b 16 c6 ad ad 33 8b 32 78 34
       0.02443 -0.12463 -0.2228 0.001567 -0.0902 0.2399 0.2045 0.2793
0001d0 1e 2f 0b b1 0b 2d 1f b0 71 b5 84 b1 66 b4 eb 2e
       0.1112 -0.1576 0.0788 -0.1288 -0.34 -0.1724 -0.275 0.1081
0001e0 7f 29 f7 34 05 35 89 b2 3c 32 b9 32 e9 30 e9 2e
       0.04294 0.3103 0.3137 -0.2042 0.1948 0.2101 0.1534 0.108
0001f0 6e ad 91 2c cb b1 fa ac 13 ad 4b 2a c3 27 a2 34
       -0.08484 0.07135 -0.181 -0.07776 -0.0793 0.04916 0.03032 0.2896

weight f2 [8]
000000 29 3a 13 3c 78 3c f6 3b 83 3c 4b 3d c4 3c 9e 3b
       0.77 1.019 1.117 0.995 1.128 1.323 1.191 0.952

bias f2 [8]
000000 dd 31 60 3b 89 b1 3f 3c c9 37 76 3c 04 30 60 36
       0.1832 0.922 -0.173 1.062 0.4866 1.115 0.1255 0.3984

running_mean f2 [8]
000000 58 c0 2b aa 7f be ca 37 e0 bb 42 b4 ea 3c 34 bf
       -2.172 -0.0482 -1.624 0.4868 -0.9844 -0.266 1.229 -1.801

running_var f2 [8]
000000 28 3b de 36 80 37 3a 35 95 36 35 3c 8c 39 bb 3a
       0.8945 0.4292 0.4688 0.3267 0.4114 1.052 0.6934 0.8413

weight f2 [32, 16, 3, 3]
000000 6c 1e 7f 2a 4e a9 84 a4 2c 29 79 ae 44 2c 31 2b
       0.00627 0.05075 -0.04144 -0.01764 0.0404 -0.10114 0.06665 0.05618
000010 93 ac 77 2d c3 a8 9b 26 3e aa c6 af bc 8c 56 ad
       -0.0715 0.0854 -0.0372 0.0258 -0.04877 -0.12146 -0.000289 -0.0834
000020 33 ac e1 a5 1e ac 4a b0 1a ac cc aa 92 b0 c0 a5
       -0.0656 -0.02296 -0.06433 -0.134 -0.0641 -0.0531 -0.1428 -0.02246
000030 5d 27 0c b0 35 b0 bd af 62 a2 fa ab c9 2c e5 2e
       0.02876 -0.1265 -0.1315 -0.1209 -0.01247 -0.06232 0.07477 0.1077
000040 d2 a4 8f 34 11 2e 1a b1 af a0 ce 2e 54 2b f8 2d
       -0.01883 0.285 0.0948 -0.1594 -0.00915 0.1063 0.05725 0.09326
000050 0c 30 d3 a1 b9 ac a2 ac 42 b1 bd ae 7b 9c 72 28
       0.1265 -0.011375 -0.0738 -0.0724 -0.1643 -0.1053 -0.004375 0.03473
000060 09 ac 00 ae 00 ac f0 ac e1 a9 d8 a6 b9 29 fa 2a
       -0.06305 -0.09375 -0.0625 -0.07715 -0.04593 -0.02673 0.0447 0.0545
000070 05 2c 80 26 e1 13 ea a8 66 2f fc 28 c1 a0 7b a8
       0.0628 0.02539 0.000962 -0.0384 0.1156 0.03894 -0.009285 -0.035
000080 52 a3 dc a1 90 ad ce 98 90 21 9c a8 2a 31 99 2f
       -0.0143 -0.011444 -0.0869 -0.002346 0.010864 -0.036 0.1614 0.1187
000090 6e ae f9 a1 94 ae a0 2f 1d 30 a4 ac 69 35 b5 34
       -0.10046 -0.011665 -0.1028 0.11914 0.1285 -0.0725 0.3381 0.2942
0000a0 81 ae a2 2c 67 30 c5 2a bb 23 9d a5 53 25 2d b0
       -0.1016 0.0724 0.1376 0.0529 0.0151 -0.02193 0.0208 -0.1305
0000b0 0f b0 42 a4 2c a8 41 2e 6e 2c b8 22 48 31 6a 20
       -0.1268 -0.01663 -0.0326 0.0977 0.0692 0.01312 0.165 0.00862
0000c0 b0 2b be 30 d2 28 5c a9 90 a8 04 9c 44 aa dc ac
       0.06006 0.1482 0.03766 -0.04187 -0.03564 -0.00392 -0.04895 -0.0759
0000d0 d9 ab c1 ae 70 b0 20 a8 97 2b 25 22 35 2d 37 a5
       -0.0613 -0.1055 -0.1387 -0.03223 0.0593 0.012 0.08136 -0.02037
0000e0 2d a5 cd 2f 33 b0 b6 b2 3e a3 4e 28 3d 29 e7 a2
       -0.02022 0.1219 -0.1312 -0.2097 -0.014145 0.03363 0.04092 -0.01348
0000f0 2f ad 6c b0 cb af e4 af 98 af a9 ad 65 a4 6e af
       -0.081 -0.1382 -0.12177 -0.1233 -0.11865 -0.08844 -0.01717 -0.1161
000100 29 ac d7 a1 59 21 9c 2e 02 a0 7d ae ed af e0 a7
       -0.065 -0.011406 0.010445 0.1033 -0.00783 -0.1014 -0.12384 -0.03076
000110 1f ac c2 24 35 27 47 2c 53 25 56 2b 92 20 0b 26
       -0.0644 0.01859 0.02815 0.06683 0.0208 0.0573 0.00893 0.0236
000120 6d 2b 16 aa 22 2c 89 2b f8 a8 6e 30 23 a5 4d 26
       0.058 -0.04755 0.0646 0.05887 -0.03882 0.1384 -0.02007 0.02461
000130 ff 2e 8a a4 38 2c 69 a4 80 ab bd 19 67 ac 9d a7
       0.1093 -0.01773 0.0659 -0.01723 -0.0586 0.002802 -0.0688 -0.02974
000140 28 29 11 22 2e a2 ed a3 de a2 84 a2 42 26 50 a5
       0.04028 0.01185 -0.01207 -0.01548 -0.01341 -0.012726 0.02444 -0.02075
000150 28 28 e6 23 2c aa 80 ab 1c a9 be 2d 08 b0 cc aa
       0.03247 0.01543 -0.04822 -0.0586 -0.03992 0.0897 -0.126 -0.0531
000160 7e 30 f0 ad 1e a9 07 b0 33 b0 90 a1 44 9a 13 ad
       0.1404 -0.0928 -0.03998 -0.1259 -0.1312 -0.010864 -0.00306 -0.0793
000170 83 2a 7b 99 95 07 52 2c 7f ad 3e a8 88 28 69 a9
       0.05087 -0.002676 0.0001157 0.0675 -0.0859 -0.03314 0.0354 -0.04227
000180 70 aa 87 a8 8b ab df aa cb ab 73 29 9b b0 58 ac
       -0.0503 -0.03537 -0.05893 -0.05368 -0.06088 0.04257 -0.1439 -0.0679
000190 ba 29 30 ad 19 24 e6 30 81 a9 f9 2a 38 30 e7 24
       0.04474 -0.08105 0.016 0.1531 -0.043 0.05447 0.1318 0.01915
0001a0 8e 2e 26 28 04 9d 62 a0 3c ac 85 25 43 a8 ee 22
       0.1024 0.0324 -0.004898 -0.00856 -0.06616 0.02156 -0.0333 0.013535
0001b0 a4 2b 86 b2 b5 ac be 9c 37 b4 fb 2d c0 ac 14 b2
       0.0597 -0.2039 -0.07355 -0.00463 -0.2634 0.09344 -0.0742 -0.19
0001c0 a4 30 86 a6 59 2c 66 24 07 a2 a4 9e 5a 26 c6 9d
       0.145 -0.02548 0.06793 0.01718 -0.01177 -0.006485 0.02481 -0.00564
0001d0 ec 1c d3 21 15 a8 75 b3 31 22 11 a5 37 b4 b7 31
       0.004807 0.011375 -0.0319 -0.233 0.01209 -0.01979 -0.2634 0.1786
0001e0 58 a9 fb af a1 33 36 2a 34 20 27 a5 20 2f 13 a9
       -0.04175 -0.1247 0.2384 0.04852 0.00821 -0.02013 0.1113 -0.03964
0001f0 ff a8 f1 28 d2 a8 ba ae 23 25 9a 31 02 ad fd 26
       -0.03903 0.0386 -0.03766 -0.1051 0.02007 0.175 -0.07825 0.0273

weight f2 [32]
000000 44 3a 30 3c 65 3a 08 3b b6 3c 58 3d 74 3b e3 3a
       0.783 1.047 0.7993 0.879 1.178 1.336 0.9316 0.861
000010 22 3a ee 38 e5 39 5f 39 6b 3a de 39 91 3a 01 3d
       0.7666 0.616 0.737 0.6714 0.8022 0.7334 0.821 1.251
000020 80 39 6a 3d 04 3c 6a 3a 03 3f e1 39 50 3a f4 38
       0.6875 1.354 1.004 0.802 1.753 0.735 0.789 0.619
000030 a7 3b c5 3b 16 3a ac 39 c9 3c ae 3c 9e 3c 3d 39
       0.9565 0.971 0.7607 0.709 1.196 1.17 1.154 0.655

bias f2 [32]
000000 98 37 4e 32 14 32 f9 30 22 b4 d5 32 07 b1 b7 36
       0.4746 0.197 0.19 0.1554 -0.2583 0.2135 -0.1571 0.4197
000010 15 35 34 38 70 34 fb 2f 40 34 55 b1 2e b6 fd 21
       0.3176 0.5254 0.2773 0.1247 0.2656 -0.1666 -0.3862 0.011696
000020 1a 38 89 37 81 ae ec 34 28 33 49 36 fc 39 11 35
       0.5127 0.471 -0.1016 0.3076 0.2236 0.3928 0.748 0.3167
000030 43 2f 71 b6 5d a5 e0 29 dd 30 14 32 cf b1 37 38
       0.11346 -0.4026 -0.02095 0.0459 0.152 0.19 -0.1815 0.527

running_mean f2 [32]
000000 9e b2 ee b8 ba b1 c2 bc 66 3f f4 3e 6b b4 ba bc
       -0.2068 -0.616 -0.179 -1.189 1.85 1.738 -0.2761 -1.182
000010 20 32 28 3e 03 b4 b3 b8 8b b4 dd b7 b9 b2 03 37
       0.1914 1.539 -0.2507 -0.5874 -0.284 -0.4915 -0.2101 0.4382
000020 da b8 7e 32 68 b8 1f c1 ec 39 d9 b5 0a bd 3f b8
       -0.6064 0.2029 -0.551 -2.56 0.74 -0.3655 -1.26 -0.531
000030 81 b8 2e bc 25 be f7 bc 49 35 ed b8 f1 32 d5 b9
       -0.563 -1.045 -1.536 -1.241 0.3303 -0.6157 0.2169 -0.729

running_var f2 [32]
000000 c5 34 6c 30 a3 34 bf 34 88 31 47 33 ac 31 60 35
       0.298 0.1382 0.2898 0.2966 0.1729 0.2274 0.1772 0.336
000010 da 32 9f 32 60 31 a6 32 c8 34 35 31 82 31 bf 33
       0.2141 0.2069 0.168 0.2078 0.2988 0.1627 0.1721 0.2421
000020 85 34 dd 38 f3 30 81 39 95 37 86 36 53 36 91 35
       0.2825 0.608 0.1547 0.688 0.4739 0.4077 0.3953 0.348
000030 cd 31 f8 2f 9c 31 ba 30 0f 35 a0 33 5e 34 f1 32
       0.1813 0.1245 0.1753 0.1477 0.3162 0.2383 0.273 0.2169

weight f2 [16, 32, 1, 1]
000000 a5 b5 3b 33 28 30 f0 ad 65 26 0f af 70 2f 77 ac
       -0.3528 0.226 0.1299 -0.0928 0.02498 -0.1103 0.1162 -0.06976
000010 f0 2c ce 32 91 ac 69 32 fd 2f c7 2f b4 ae 7d 30
       0.07715 0.2126 -0.07135 0.2003 0.1248 0.1215 -0.10474 0.1403
000020 7b ab b2 2e d5 b0 10 36 33 24 42 ac d2 b4 a4 35
       -0.05844 0.1046 -0.151 0.379 0.0164 -0.0665 -0.3013 0.3525
000030 4a b0 5e 27 50 2a 61 9c 92 30 c3 b1 9a a4 a7 34
       -0.134 0.02878 0.04932 -0.004276 0.1428 -0.18 -0.01797 0.2908
000040 6f 31 56 2c ea b3 3e af 46 96 f0 2e 05 b0 f1 b0
       0.1698 0.06775 -0.2473 -0.11316 -0.001532 0.1084 -0.1256 -0.1544
000050 4a ae 3c 2f 9c ac 42 ae 95 ae 14 aa 53 b2 82 a0
       -0.09827 0.11304 -0.072 -0.0978 -0.10284 -0.0475 -0.1976 -0.008804
000060 d6 af 4f a0 1b a4 ba af 0e 2f 7c b3 44 aa fd a7
       -0.12244 -0.008415 -0.01604 -0.1207 0.1102 -0.2339 -0.04895 -0.0312
000070 ce ae 1b 2b 03 b1 7a 36 17 a9 9d a8 73 2d 55 a8
       -0.1063 0.0555 -0.1566 0.4048 -0.03976 -0.03604 0.08514 -0.03384
000080 4b 35 f8 b1 b4 2c 6e 34 cf 32 6a 29 37 ad d5 b2
       0.3308 -0.1865 0.0735 0.2769 0.2128 0.0423 -0.0815 -0.2135
000090 fb a4 c3 32 b5 31 af 2c a7 aa 3c b4 d8 ae 2e a8
       -0.01945 0.2113 0.1783 0.0732 -0.05197 -0.2646 -0.10693 -0.03265
0000a0 9f ae ab 30 fd aa eb 36 99 a4 a9 31 2f b4 7a b6
       -0.10345 0.1459 -0.0546 0.4324 -0.01796 0.1769 -0.2615 -0.4048
0000b0 d9 a9 d3 2f b4 ae a5 26 7c 2f 52 27 6b 29 07 34
       -0.0457 0.12225 -0.10474 0.02596 0.11694 0.0286 0.04233 0.2517
0000c0 3c b2 99 b0 a4 b3 c2 33 eb aa 7f 2d bc b0 18 ac
       -0.1948 -0.1437 -0.2388 0.2424 -0.05405 0.0859 -0.148 -0.06396
0000d0 5a a0 4c a4 56 34 33 b1 36 30 72 af 40 ad b4 aa
       -0.0085 -0.01678 0.271 -0.1625 0.1316 -0.11633 -0.08203 -0.05237
0000e0 61 b0 64 2c 6d 30 0f b3 40 26 2e 2f e7 b6 a5 35
       -0.1368 0.0686 0.1383 -0.2206 0.02441 0.1122 -0.4314 0.3528
0000f0 84 ac 02 23 9c 25 2f ad e9 23 0d 21 6a b1 1b a8
       -0.07056 0.01369 0.02191 -0.081 0.01545 0.009865 -0.1692 -0.03207
000100 ab b0 70 ac 10 b6 45 b1 ff b1 a5 29 e6 ae 52 2d
       -0.1459 -0.06934 -0.379 -0.1647 -0.1874 0.0441 -0.1078 0.0831
000110 a3 b5 c0 24 dd 27 57 2b 5b ae 4f af d7 31 92 2e
       -0.3523 0.01855 0.03072 0.05734 -0.0993 -0.1142 0.1825 0.10266
000120 ac 34 60 24 6d aa bf ac b9 9f 77 28 eb 2e b0 30
       0.292 0.01709 -0.0502 -0.07416 -0.00754 0.03488 0.1081 0.1465
000130 70 35 92 32 d0 ad e4 29 16 28 8d ad 98 28 c0 9c
       0.3398 0.2053 -0.0908 0.04602 0.03192 -0.08673 0.0359 -0.00464
000140 42 1b 1f 2e 11 b5 63 ae b3 ab ef 2c ed 2c c6 34
       0.003544 0.09564 -0.3167 -0.0998 -0.06015 0.0771 0.07697 0.2983
000150 b9 ad 2e a5 50 28 98 ae 05 31 2e a8 ee b1 54 34
       -0.0894 -0.02023 0.0337 -0.103 0.1569 -0.03265 -0.1853 0.2705
000160 40 34 c8 b1 1e b4 43 ad 14 30 bb b6 51 aa cd b0
       0.2656 -0.1807 -0.2573 -0.0822 0.1274 -0.4207 -0.04935 -0.15
000170 d3 2e 07 25 ce aa 8f b2 72 b0 2b 2b b3 b1 29 30
       0.1066 0.01964 -0.05316 -0.205 -0.1389 0.056 -0.1781 0.13
000180 5f 34 8e ad 5a 34 a3 b1 b5 2b fc a5 2e b4 ae b4
       0.2732 -0.0868 0.272 -0.1761 0.0602 -0.02338 -0.2612 -0.2925
000190 70 22 82 a8 87 98 c9 1b be af 02 33 d4 1c 26 ae
       0.01257 -0.03522 -0.00221 0.003801 -0.121 0.219 0.004715 -0.09607
0001a0 3a b0 ac b3 b5 2c 56 ae a1 b0 d2 b4 4e b0 da ad
       -0.1321 -0.2397 0.07355 -0.099 -0.1447 -0.3013 -0.1345 -0.09143
0001b0 fe 2d d5 b0 92 2c bb b4 54 30 98 b2 db a8 fa ad
       0.0936 -0.151 0.0714 -0.2957 0.1353 -0.206 -0.03793 -0.0934
0001c0 a6 29 27 ae b7 30 5f ad ae a9 16 ad fb 28 3d ae
       0.04413 -0.0961 0.1473 -0.0839 -0.04437 -0.07947 0.0389 -0.0975
0001d0 32 b1 91 b1 4e 2e 60 34 96 2c a4 b1 1a b3 26 2f
       -0.1624 -0.174 0.0985 0.2734 0.07166 -0.1763 -0.2219 0.1117
0001e0 73 b3 a1 af 92 2a 4f 9d 05 2c de a7 c1 2a a7 b1
       -0.2328 -0.1192 0.05133 -0.005184 0.0628 -0.03073 0.05276 -0.1766
0001f0 6a af 2b ac 4c b0 c0 b1 66 18 dc 22 32 ad e4 b3
       -0.11584 -0.0651 -0.1343 -0.1797 0.002148 0.0134 -0.0812 -0.2466

weight f2 [16]
000000 27 35 04 3a a7 36 d3 37 59 36 d0 38 f7 37 0a 39
       0.322 0.752 0.4158 0.489 0.3967 0.6016 0.4978 0.63
000010 67 35 93 36 00 36 88 38 7f 36 c7 37 9a 37 4e 39
       0.3376 0.411 0.375 0.5664 0.406 0.486 0.475 0.663

bias f2 [16]
000000 5a 35 39 37 e0 39 7e 36 e4 2d 89 38 ee 3a 9d 34
       0.3345 0.4514 0.7344 0.4058 0.09204 0.567 0.866 0.2883
000010 64 3d bd af a6 39 f8 36 1a 34 6d 34 10 38 f8 30
       1.348 -0.1209 0.706 0.4355 0.2563 0.2766 0.508 0.1553

running_mean f2 [16]
000000 d5 30 9b b2 e4 34 74 b4 6d a0 f8 a4 25 b9 b6 b5
       0.151 -0.2064 0.3057 -0.2783 -0.008644 -0.01941 -0.643 -0.357
000010 4d 34 0e b8 52 ad bf ac 5c ae 90 95 c6 32 8e a1
       0.2688 -0.507 -0.0831 -0.07416 -0.09937 -0.001358 0.2117 -0.01085

running_var f2 [16]
000000 d2 34 19 35 f2 35 50 35 1b 33 f6 35 cd 35 99 34
       0.3013 0.3186 0.3716 0.332 0.222 0.3726 0.3625 0.2874
000010 07 38 0d 31 fa 38 02 34 52 38 1b 35 dd 3a f2 34
       0.5034 0.1578 0.622 0.2505 0.54 0.319 0.858 0.309
